models/imagewoof_classifier_head.pth (torch, 83716 bytes, 2 tensors)

fc.weight f4 [10, 2048]
-0.003116251 0.0066154664 0.002035956 -0.04332728 -0.0507022 -0.039936777 0.018736713 -0.023155235
0.037805147 -0.02030711 -0.018730829 0.012867061 -0.026221374 0.012885681 0.051770523 -0.0034789115
0.031747583 0.011118119 -0.027839066 -0.021145407 -0.0037885907 0.0042460687 -0.018168347 -0.015556708
-0.025396083 0.017152244 0.045404304 0.029544905 -0.05292641 -0.012941652 0.0090911575 0.032645147
-0.047600042 0.0026608983 0.017579265 -0.056146618 -0.0067000445 0.021463025 -0.00083945 -0.015352606
0.027033862 -0.02653007 -0.0062510334 0.01297146 0.0031215926 -0.014380862 0.00094443024 0.0029899997
0.0017207619 -0.008859796 -0.014327917 -0.046121825 0.012113454 0.004707421 -0.046659086 -0.028213728
-0.0077137602 -0.0077738296 -0.054077376 -0.02464106 0.029105144 0.022082904 0.016743043 -0.020449221
-0.025802791 0.009630272 -0.037965197 0.013946062 -0.038080044 -0.009698625 -0.0088796 -0.0017012376
-0.0037920945 0.017526362 -0.042479005 0.006273759 -0.022143126 0.006050848 -0.024540653 -0.022873942
-0.021130428 0.019835863 -0.009203749 0.013346874 0.014266965 -0.005858484 -0.010447672 0.04364068
-0.01201628 0.011987137 -0.040545613 -0.022475187 -0.013607141 -0.012301012 0.025614714 0.008100196
-0.042186044 -0.035764277 0.010794387 -0.03154237 -0.032427 -0.021832414 -0.018653903 0.025888495
-0.01878893 0.026745833 0.0011171743 -0.02759561 0.00594212 -0.030478613 0.027236087 -0.016921813
-0.043438546 -0.0035551167 0.0040769945 -0.019260347 0.0162801 -0.009090293 0.043757968 -0.014342336
-0.02209506 -0.005132186 -0.007864678 0.017112618 0.00013771607 0.00087360013 -0.026103456 0.025593914
0.04663858 -0.009570614 -0.028458882 0.017871952 -0.022095868 0.0059056534 0.00621257 -0.01510691
-0.042377755 -0.009949521 -0.040740892 -0.05324814 -0.03615449 0.020347664 -0.041076872 -0.02684145
0.009497191 0.00022133355 -0.018757552 0.021140777 -0.0389132 0.036207955 -0.040223468 0.006098131
-0.020013757 -0.0086832475 0.00032215376 0.026412861 -0.0316442 -0.00048264445 -0.015776224 -0.02186623
-0.007467482 -0.007170914 -0.030329803 0.009307946 0.045353815 0.05764335 0.0018977314 -0.019337699
0.0014107875 -0.010145832 -0.009782719 -0.03512819 0.004727762 -0.018328087 -0.022137811 0.02085389
-0.062164266 -0.021291714 -0.0005836907 -0.002241786 -0.017822955 0.0104526505 -0.023308696 -0.010154459
-0.0015948731 -0.040044922 0.013480343 -0.016280932 0.009251356 -0.022817485 -0.00029988718 -0.024769474
-0.02896598 0.0012056895 0.018040428 0.025240885 -0.002522085 0.031992238 -0.019933224 -0.012716355
-0.015360701 -0.008310387 0.010592247 -0.03427953 -0.013557343 -0.04187892 -0.023321085 -0.00083264016
0.038622364 -0.021177469 -0.044377178 0.03298678 0.0040711625 -0.0004977647 -0.0017296606 -0.036626905
-0.03455161 -0.04893933 0.008956503 -0.030086357 -0.0008416203 0.01083809 -0.0026955472 0.015404925
-0.011284946 0.0046182685 -0.025178388 -0.032162637 -0.031237066 -0.017429844 -0.035290208 0.024440251
-0.022026738 -0.00068249804 -0.03411824 -0.025553957 -0.027857108 -0.040901694 -0.03408624 0.020604605
0.022358319 -0.041888773 -0.024944775 -0.010547056 -0.0058025583 0.010999563 -0.0016124714 -0.01940274
-0.054947708 -0.011656437 -0.04079679 0.0032784794 0.048219807 0.0037140443 -0.032187566 -0.0067092506
00000000: 043a 4cbb 8ec6 d83b ac6d 053b f277 31bd
00000010: 1cad 4fbd bf94 23bd bc7d 993c 0cb0 bdbc
00000020: 92d9 1a3d 195b a6bc 6571 99bc 5ed0 523c
00000030: 35ce d6bc 771e 533c 540d 543d 73fe 63bb
00000040: c109 023d c528 363c c10e e4bc 2239 adbc
00000050: 014a 78bb 9b22 8b3b c9d5 94bc 90e1 7ebc
00000060: 720b d0bc dd82 8c3c ddf9 393d 2808 f23c
00000070: 5dc9 58bd 3909 54bc 14f3 143c ebb6 053d
00000080: 43f8 42bd 7762 2e3b 6402 903c fff9 65bd
00000090: 0c8c dbbb 3ad3 af3c 890e 5cba 7f89 7bbc
000000a0: 1e76 dd3c 9755 d9bc 78d5 ccbb 3f86 543c
000000b0: a293 4c3b b59d 6bbc a493 773a dff3 433b
000000c0: 308b e13a ae28 11bc a4bf 6abc 3dea 3cbd
000000d0: 8277 463c b640 9a3b 991d 3fbd 7a20 e7bc
000000e0: b6c3 fcbb 9cbb febb 3d80 5dbd 0cdc c9bc
000000f0: e96d ee3c 35e7 b43c b528 893c 2085 a7bc
00000100: 6060 d3bc 4ac8 1d3c 6581 1bbd 067e 643c
00000110: d2f9 1bbd fbe6 1ebc be7b 11bc 10fc deba
00000120: ca84 78bb 7293 8f3c 77fe 2dbd 1b94 cd3b
00000130: 8065 b5bc 3146 c63b 7b09 c9bc 2262 bbbc
00000140: b819 adbc d27e a23c 52cb 16bc d9ac 5a3c
00000150: fdbf 693c 87f8 bfbb b62c 2bbc 92c0 323d
00000160: eedf 44bc b265 443c 2813 26bd e21d b8bc
00000170: 7cf0 5ebc 2f8a 49bc f3d5 d13c afb6 043c
00000180: 46cb 2cbd 907d 12bd f1da 303c 9232 01bd
00000190: 2dd2 04bd e4d9 b2bc 12d0 98bc 1c14 d43c
000001a0: 3eeb 99bc 141a db3c 266e 923a 3010 e2bc
000001b0: 1eb6 c23b 49ae f9bc 371e df3c 9d9f 8abc
000001c0: 9eec 31bd f6fc 68bb 4f98 853b e0c7 9dbc
000001d0: d85d 853c 74ef 14bc 8e3b 333d 1efc 6abc
000001e0: b300 b5bc e62b a8bb dada 00bc c32f 8c3c
000001f0: e067 1039 5002 653a ead6 d5bc 54aa d13c
00000200: 1808 3f3d 11ce 1cbc 9a22 e9bc 3368 923c
00000210: 6502 b5bc 3684 c13b d092 cb3b f982 77bc
00000220: 4c94 2dbd 5103 23bc ecdf 26bd b91a 5abd
00000230: bb16 14bd 25b0 a63c 3940 28bd 9ae2 dbbc
00000240: 1b9a 1b3c c615 6839 70a9 99bc 6c2f ad3c
00000250: 7363 1fbd cb4e 143d 5dc1 24bd d5d2 c73b
00000260: e4f3 a3bc 2e44 0ebc bfe6 a839 c95f d83c
00000270: 599d 01bd 710b fdb9 243d 81bc cf20 b3bc
00000280: c7b1 f4bb fdf9 eabb 3576 f8bc 5b80 183c
00000290: ecc4 393d 6f1b 6c3d 4dbd f83a 186a 9ebc
000002a0: 2cea b83a b43a 26bc b347 20bc 94e2 0fbd
000002b0: 58eb 9a3b c924 96bc 5b5a b5bc c7d5 aa3c
000002c0: f59f 7ebd f66b aebc d202 19ba eeea 12bb
000002d0: 7201 92bc 9841 2b3c e1f1 bebc e35e 26bc
000002e0: 100b d1ba 2506 24bd a8dc 5c3c 975f 85bc
000002f0: 0093 173c bceb babc 2d3a 9db9 5ae9 cabc
00000300: 104a edbc 3a08 9e3a 85c9 933c f9c5 ce3c
00000310: 9149 25bb 4b0a 033d 004b a3bc 4258 50bc
00000320: 73ab 7bbc 4a28 08bc 1b8b 2d3c b168 0cbd
00000330: 9e1f 5ebc 3b89 2bbd dc0b bfbc 8945 5aba
00000340: 7c32 1e3d 5f7c adbc d8c4 35bd 251d 073d
00000350: 6367 853b 6c7c 02ba c7b5 e2ba 1806 16bd
00000360: fd85 0dbd 9b74 48bd 4cbe 123c aa77 f6bc
00000370: 2fa0 5cba 3f92 313c c7a7 30bb f064 7c3c
00000380: 7fe4 38bc d854 973b e842 cebc f8bc 03bd
00000390: e0e4 ffbc 08c9 8ebc 778c 10bd ec36 c83c
000003a0: 6b71 b4bc abe9 32ba 91bf 0bbd 8856 d1bc
000003b0: 9734 e4bc 8988 27bd 039e 0bbd fdca a83c
000003c0: cb28 b73c 9093 2bbd fc58 ccbc 8fcd 2cbc
000003d0: 6323 bebb 8337 343c 9059 d3ba 7ff2 9ebc
000003e0: d910 61bd a4fa 3ebc 891a 27bd c2db 563b
000003f0: 2282 453d 5367 733b 1cd7 03bd 46d9 dbbb

fc.bias f4 [10]
0.015397863 -0.024531208 0.005675909 0.019645955 -0.0027900094 0.010637912 0.01826623 -0.00025065918
-0.012307459 0.011466767
00000000: 5247 7c3c acf5 c8bc fafc b93b 8ef0 a03c
00000010: 97d8 36bb a34a 2e3c 10a3 953c e86a 83b9
00000020: 39a5 49bc 1bdf 3b3c
